FNN/models/best_fnn.pt (torch, 138843 bytes, 8 tensors)

linear_layer_1.weight f4 [128, 3]
-0.97133803 -0.004504686 -0.34362668 -0.004349105 0.00013622348 -0.34181666 -0.2409154 0.68486243
-0.19608197 -0.005417433 -0.001447044 -0.21121825 -0.0013566142 -3.1413263e-05 0.13450356 0.028893147
0.9478814 -0.2751423 -0.10083415 1.0369277 -0.5189773 0.83056575 -0.05751461 -0.11801451
0.74439967 -0.01509554 -0.45471016 0.061872058 1.1020838 -0.41294593 -0.0028674232 0.013927125
0.1494413 -1.2963626 -0.011659235 -0.16381162 0.0079182405 -0.51151973 -0.34843734 0.004047254
0.0013031972 0.01276133 -0.10059662 -0.21582136 0.049264915 0.038897388 0.79240054 -0.6234604
0.058824345 0.7409011 0.3998967 -0.0016355248 -0.0005434742 -0.0131123895 -0.0003060734 -0.0011218298
0.27606922 -0.026846837 -0.9230091 -0.1775312 -0.09073698 1.411962 -0.20470959 0.0011584298
0.00044790862 0.1628688 0.09149731 0.565248 0.020012163 0.0005094252 0.00011389058 0.1748754
-0.0012365684 0.0001423528 0.3769741 0.056343444 -0.75644654 -0.6964914 0.021358972 -0.6743437
-0.43046948 0.010989962 -0.42398334 -0.30653688 -0.0072311377 -0.13693161 -0.6250595 0.0069342013
0.0026222493 0.22839397 0.112347506 1.3542099 -0.14540395 -0.09419762 1.5204617 -0.20079723
0.0026303644 0.00013895058 0.48662817 0.0010845537 0.18360838 -0.5084955 0.017340202 -0.81326985
-0.27043226 0.003914799 0.39664286 0.03523224 -0.0038918878 -0.0023986716 -0.05367703 0.030704794
0.19579685 0.027089054 0.022698125 0.3129627 -0.17639886 0.07576374 -0.28321928 0.36715728
0.00041628198 -0.000458403 -0.25229317 0.011122515 -0.9178582 -0.66541743 0.15933636 -1.2451457
-0.0750388 -0.21948065 -1.3333343 -0.18895051 0.073277265 0.25846866 -0.16029124 0.04051825
0.6777813 -0.15709086 -0.03745329 0.49324474 -0.6036234 -0.029862702 -0.42169225 -0.18038526
-0.06365338 -0.82070065 -0.50289625 0.002930603 -0.00070441014 0.41677952 3.1612115e-05 0.0018823122
-0.3131271 -0.032958705 0.58266187 -0.5858902 -0.00055853237 0.002019145 0.33641168 -0.0011536614
-0.00016771986 0.033540435 -0.0005478289 0.001133123 0.10517762 0.0013828285 0.00029657123 0.2949659
-0.05826004 1.3344599 -0.047848303 -0.093094744 -1.0589987 -0.31979826 -0.0048721456 -0.0028737653
-0.17640762 -0.0042484635 -0.0008146666 -0.37122428 0.0043678894 0.00018895614 -0.2828895 0.0024989839
0.0003868264 -0.17578068 -0.038202725 0.48627502 0.26135883 0.25527084 -1.4503343 -0.39281723
0.006298516 0.76021147 -0.32669574 1.1010332 0.0036309287 -0.76475346 0.00048212046 0.014634162
0.03698171 0.008314466 -0.42004782 -0.725339 -0.0069317888 0.035320494 0.21225709 -0.002227716
-0.019098992 0.11306779 0.04929748 1.1254141 -0.2199121 -0.0032466573 -0.0031593984 0.39133853
-0.00015338542 -0.00062597945 0.34510374 -0.0025386652 0.0012654719 0.15137582 0.003925272 -0.8752048
-0.9106863 -0.0010558894 -2.2435306e-05 -0.10729905 0.029730972 -0.4417661 -0.28196537 -0.0020205164
-5.2825228e-05 0.08405946 -0.0017185599 -0.00010710271 -0.123876266 0.00040410802 0.00092178775 0.092592075
0.055397764 0.44726688 0.29421422 0.09840836 1.1895057 -0.596407 -0.00501176 -0.31481457
-0.6399451 0.004010292 0.0013082887 0.15905675 1.1138285 0.0071340734 -0.68895036 0.00150406
00000000: 9ca9 78bf 0c9c 93bb d6ef afbe f082 8ebb
00000010: 36d7 0e39 9802 afbe 87b2 76be 2553 2f3f
00000020: b6c9 48be b984 b1bb bdaa bdba 9949 58be
00000030: 6bd0 b1ba bcc1 03b8 4dbb 093e 52b1 ec3c
00000040: 5ba8 723f 74df 8cbe 2382 cebd 0cba 843f
00000050: b2db 04bf f59f 543f 7194 6bbd 97b1 f1bd
00000060: fa90 3e3f 4953 77bc c5cf e8be 8e6d 7d3d
00000070: 1511 8d3f a66d d3be 61eb 3bbb 992e 643c
00000080: 2407 193e 36ef a5bf 6006 3fbc 3cbe 27be
00000090: 82bb 013c f5f2 02bf 6166 b2be d49e 843b
000000a0: 0bd0 aa3a e614 513c 9a05 cebd 4600 5dbe
000000b0: 02ca 493d de52 1f3d c3da 4a3f 1a9b 1fbf
000000c0: ccf1 703d b2ab 3d3f 43bf cc3e 1b5f d6ba
000000d0: f077 0eba 59d5 56bc 7a78 a0b9 5d0a 93ba
000000e0: f258 8d3e e6ed dbbc 534a 6cbf bdca 35be
000000f0: 4fd4 b9bd 2cbb b43f 649f 51be 74d6 973a
00000100: 47d5 ea39 14c7 263e f162 bb3d 18b4 103f
00000110: 8cf0 a33c f28a 053a 8ad8 ee38 8912 333e
00000120: 5a14 a2ba 8a44 1539 c002 c13e 62c8 663d
00000130: 7ba6 41bf 434d 32bf 03f9 ae3c caa1 2cbf
00000140: 7f66 dcbe 3e0f 343c 5814 d9be 67f2 9cbe
00000150: 2ef3 ecbb cd37 0cbe e603 20bf 4c38 e33b
00000160: 0bda 2b3b 1ce0 693e 7316 e63d c056 ad3f
00000170: c6e4 14be afea c0bd 7d9e c23f ca9d 4dbe
00000180: 3162 2c3b 43b3 1139 5427 f93e 9527 8e3a
00000190: d603 3c3e c32c 02bf 0a0d 8e3c 7432 50bf
000001a0: 1976 8abe b747 803b c614 cb3e ae4f 103d
000001b0: 0b0f 7fbb 0833 1dbb 72dc 5bbd 9f88 fb3c
000001c0: f87e 483e dde9 dd3c 6bf1 b93c a63c a03e
000001d0: e7a1 34be 052a 9b3d 1e02 91be 0afc bb3e
000001e0: 6c40 da39 cf55 f0b9 922c 81be 363b 363c
000001f0: c1f8 6abf cc58 2abf 1229 233e ef60 9fbf
00000200: f1ad 99bd 89bf 60be b3aa aabf 3e7c 41be
00000210: 6412 963d 0156 843e 6323 24be 77f6 253d
00000220: 1383 2d3f 6ddc 20be 9f68 19bd 938a fc3e
00000230: 1087 1abf a0a2 f4bc 0ce8 d7be eab6 38be
00000240: b45c 82bd 7019 52bf cfbd 00bf 5c0f 403b
00000250: 2aa8 38ba 2064 d53e 4097 0438 ebb7 f63a
00000260: 3252 a0be b5ff 06bd 5429 153f e6fc 15bf
00000270: 796a 12ba a253 043b 273e ac3e 7436 97ba
00000280: f5dd 2fb9 b261 093d 2d9c 0fba 4c85 943a
00000290: 5d67 d73d 0640 b53a 1e7d 9b39 c505 973e
000002a0: 14a2 6ebd 95cf aa3f 95fc 43bd 75a8 bebd
000002b0: 458d 87bf 99bc a3be 85a6 9fbb c855 3cbb
000002c0: 33a4 34be b236 8bbb 5a8f 55ba 1c11 bebe
000002d0: 8320 8f3b 8722 4639 e4d6 90be fec5 233b
000002e0: f6ce ca39 daff 33be 767a 1cbd 0af9 f83e
000002f0: d3d0 853e dcb2 823e 8ea4 b9bf 571f c9be
00000300: c863 ce3b 389d 423f aa44 a7be a8ee 8c3f
00000310: e0f4 6d3b e2c6 43bf 1dc5 fc39 20c4 6f3c
00000320: 227a 173d 6639 083c 8210 d7be d1af 39bf
00000330: 0f24 e3bb 39ac 103d ec59 593e dffe 11bb
00000340: 7d75 9cbc 1690 e73d 28ec 493d 920d 903f
00000350: a330 61be dfc5 54bb e90d 4fbb 865d c83e
00000360: 16d6 20b9 c518 24ba 70b1 b03e bc5f 26bb
00000370: 31de a53a 4302 1b3e 919f 803b 6c0d 60bf
00000380: bd22 69bf c565 8aba 7433 bcb7 9bbf dbbd
00000390: 5e8e f33c 2b2f e2be c45d 90be a46a 04bb
000003a0: a890 5db8 5e27 ac3d 4d41 e1ba 549c e0b8
000003b0: d7b2 fdbd 76de d339 21a4 713a eaa0 bd3d
000003c0: c4e8 623d 2a00 e53e 3fa3 963e 528a c93d
000003d0: b941 983f 21ae 18bf b139 a4bb 602f a1be
000003e0: 71d3 23bf c468 833b e27a ab3a c6df 223e
000003f0: ef91 8e3f f2c4 e93b 0d5f 30bf e123 c53a

linear_layer_1.bias f4 [128]
0.07295057 0.34193823 0.35784644 0.21217322 -0.13606213 -0.4609396 -0.382496 0.14589761
0.17580518 -0.24600972 -0.12472616 -0.23262088 -0.30198136 -0.013618171 0.30280042 0.03771848
0.03939403 0.013965037 -0.27425468 -0.64146 -0.39255035 -0.1584532 0.17351896 -0.17431913
-0.37688708 0.020085726 -0.27943352 -0.29984143 0.4393739 -0.2314039 -0.44416377 -0.33958343
-0.48776653 0.3383156 -0.49560648 -0.26407003 0.05629794 0.12464548 0.41629383 0.3068072
0.25359216 -0.03515476 -0.62725174 -0.4614576 0.38115025 -0.50580513 0.12655678 -0.3099229
-0.25235155 -0.41639212 0.3103824 -0.41268232 -0.3390063 -0.033756208 -0.104814015 -0.294925
0.1525452 -0.35697436 0.18010674 0.3706108 0.28180006 0.17437205 0.38002756 -0.28663564
0.018161066 0.25865126 -0.01125199 0.120874025 -0.16270189 -0.08773209 -0.45235243 -0.38819894
-0.34416056 -0.15187262 0.17000762 0.10673741 -0.3022772 -0.08095013 0.12378295 -0.09410024
0.1171692 0.058949996 0.21752235 -0.16104515 0.30227688 -0.42374936 0.17440832 0.10548523
-0.46582177 0.41400263 0.16231214 -0.30605248 -0.19410662 -0.062412806 -0.49393538 -0.27542618
0.18734993 0.1125751 -0.33689272 -0.36023852 -0.26640135 -0.2989032 -0.24798204 0.3419036
-0.45323303 -0.07005759 0.111609235 0.27576092 -0.22934577 0.43565395 -0.12528986 -0.4740099
-0.331236 -0.1372974 -0.19420984 -0.07279788 0.018633798 0.18546174 -0.4514215 -5.947298e-05
-0.43430066 -0.0316141 0.20036286 0.10461733 -0.37656388 -0.0074403533 -0.3754567 -0.36483935
00000000: 1c67 953d 8712 af3e a637 b73e f043 593e
00000010: df53 0bbe 4600 ecbe 84d6 c3be 2f66 153e
00000020: 4606 343e f9e9 7bbe 6e70 ffbd 2b34 6ebe
00000030: 4d9d 9abe c01e 5fbc a808 9b3e b17e 1a3d
00000040: a25b 213d 9ccd 643c 1c6b 8cbe b936 24bf
00000050: 5cfc c8be 8e41 22be f4ae 313e b780 32be
00000060: 58f7 c0be d28a a43c e911 8fbe d184 99be
00000070: 9ef5 e03e 25f5 6cbe 6f69 e3be e1dd adbe
00000080: 89bc f9be b437 ad3e 22c0 fdbe 3034 87be
00000090: ab98 663d 2146 ff3d 7724 d53e d515 9d3e
000000a0: d5d6 813e 70fe 0fbd 9293 20bf 2c44 ecbe
000000b0: 2026 c33e 727c 01bf 1a98 013e 37ae 9ebe
000000c0: 3934 81be 5931 d5be 71ea 9e3e 194b d3be
000000d0: 3c92 adbe f343 0abd bba8 d6bd 6900 97be
000000e0: cf34 1c3e 58c5 b6be e76d 383e b3c0 bd3e
000000f0: 1948 903e 968e 323e f992 c23e e8c1 92be
00000100: 84c6 943c f06d 843e 445a 38bc cd8c f73d
00000110: 539b 26be e2ac b3bd bd9a e7be 03c2 c6be
00000120: d035 b0be 7f84 1bbe 7a16 2e3e 2599 da3d
00000130: 14c4 9abe 2fc9 a5bd ea81 fd3d a0b7 c0bd
00000140: 68f6 ef3d 8d75 713d 2ebe 5e3e 05e9 24be
00000150: 09c4 9a3e adf5 d8be 1898 323e a408 d83d
00000160: 3180 eebe 27f8 d33e 2735 263e e9b2 9cbe
00000170: e3c3 46be 92a4 7fbd 19e5 fcbe a904 8dbe
00000180: a9d8 3f3e c68d e63d 347d acbe 2f71 b8be
00000190: c265 88be d709 99be 01ef 7dbe fd0d af3e
000001a0: 290e e8be 5b7a 8fbd 6293 e43d 8930 8d3e
000001b0: 9ed9 6abe 090e df3e fc4b 00be 6db1 f2be
000001c0: c497 a9be b197 0cbe f2de 46be 0e17 95bd
000001d0: e8a5 983c afe9 3d3e b820 e7be a072 79b8
000001e0: a85c debe c97d 01bd ec2b 4d3e 9c41 d63d
000001f0: fbcc c0be 35ce f3bb dc3b c0be 39cc babe

linear_layer_2.weight f4 [128, 128]
-0.34975865 0.08097846 -0.19691092 0.008050601 -0.029148284 0.04097499 -0.17239296 0.08028934
0.24239752 -0.07001559 -0.12058224 -0.43347433 0.00066569436 0.04947521 -0.39331716 0.3431389
-0.15141305 -0.03862932 -0.07372834 -0.23197669 -0.30511892 -0.02749119 -0.08469116 0.013796128
-0.0007558685 0.06511463 -0.0673299 0.15014642 0.14293206 0.02052444 -0.12980184 -0.6045271
-0.043059707 0.26486328 -0.14741145 0.21713468 -0.052464414 -0.15980642 -0.15168649 -0.25147185
-0.02336063 -0.21648683 -0.1941309 -0.4201156 -0.14052202 0.40114498 0.108462155 -0.0352196
-0.12370562 -0.07302013 0.13660793 0.24268034 0.064706855 -0.02824673 0.002600231 -0.0033092212
-0.15154062 -0.281508 -0.080684364 -0.009697172 0.05450354 -0.011145439 -0.24529964 -0.41113868
0.13795611 0.4151699 -0.16297926 0.1458261 -0.16629274 -0.24391739 -0.09289839 -0.08622181
-0.010838985 -0.0410665 -0.16306336 0.11920438 0.17771022 -0.049723905 -0.028991492 0.03977415
-0.09166909 -0.09511883 0.10623867 0.057674743 0.45707688 0.048086364 0.0039567016 -0.45629144
0.019992389 0.008609202 0.029859902 -0.091104195 -0.08416148 0.07626379 -0.03069902 -0.011501785
0.3762719 0.16608569 0.027366046 0.09256683 -0.56691307 -0.35107905 -0.027232675 0.07991899
0.0798324 0.049509987 -0.17433184 0.049824137 -0.0035247426 0.14535142 -0.0038349947 0.0009114136
-0.21569112 -0.07330563 -0.0007009652 -0.23051496 -0.17223825 0.022318322 -0.120643996 -0.0280311
0.09800175 0.043833308 0.031470247 -0.057638045 -0.0046613025 0.034263194 0.030677952 -0.16942582
0.018936714 0.08070202 -0.50843513 0.12631732 -0.04001817 -0.3888185 -0.39870763 -0.40389606
0.2938313 -0.49500003 -0.2466483 -0.060981132 0.34843627 0.014401473 -0.52709025 -0.31217602
-0.5940363 0.12066067 -0.09582094 0.18643846 -0.8592862 -0.3000456 -0.57681006 -0.36525193
-0.10345411 0.046020307 0.29204896 0.45413694 0.38517755 -0.07328009 -0.83664817 -0.9049029
0.03776378 0.009055672 0.22001164 -0.25870818 0.1503989 -0.43164977 -0.53939354 -0.47756273
0.06944446 0.08754383 -0.21888882 -0.23407426 -0.5291676 -0.13323204 0.04903433 0.42026183
0.11841307 -0.51386654 0.038554262 0.2690281 0.110359475 -0.5382179 0.21846738 0.045742095
-0.8576058 -0.15640083 0.18008454 -0.057453513 -0.0061677997 0.45074293 -0.5809844 -0.33169624
-0.34778115 0.37624547 -0.37436184 0.38672662 -0.34240964 -0.3465989 -0.51197684 0.22732674
0.23331748 -0.19234952 0.07196415 0.211245 0.37245953 -0.16292039 -0.09580286 -0.17897922
-0.5498842 -0.62660235 0.4322941 -0.021327315 0.24175148 0.15197417 -0.10591346 -0.56102663
-0.16086137 -0.61826104 0.14975241 0.35606498 -0.7994363 0.50503534 0.049785417 0.009895376
-0.28952754 -0.30580112 -0.07969286 0.11066035 -0.12074377 -0.22849256 -0.050545886 0.3500133
0.5143617 0.32274815 -0.04675455 -0.18674734 -0.33059326 0.015691437 0.06707905 -0.2553561
-0.05626569 -0.47234347 0.22068395 -0.48912448 -0.52516085 -0.13863395 -0.43429938 0.27495712
0.058241677 -0.19745322 0.37115088 0.23575738 -0.019869372 -0.39446324 0.5871771 0.16509564
00000000: 9113 b3be 09d8 a53d 04a3 49be abe6 033c
00000010: 62c8 eebc 64d5 273d c887 30be bd6e a43d
00000020: 0e37 783e 5564 8fbd d2f3 f6bd 59f0 ddbe
00000030: fe81 2e3a 85a6 4a3d de60 c9be e7af af3e
00000040: 060c 1bbe c739 1ebd e2fe 96bd 4c8b 6dbe
00000050: 8c38 9cbe 3435 e1bc 8f72 adbd 2809 623c
00000060: 7a25 46ba d25a 853d 42e4 89bd fcbf 193e
00000070: c85c 123e df22 a83c c6ea 04be 4ac2 1abf
00000080: 605f 30bd 299c 873e 07f3 16be 8e58 5e3e
00000090: ede4 56bd 4ba4 23be b453 1bbe ebc0 80be
000000a0: cb5e bfbc b9ae 5dbe 40ca 46be 6419 d7be
000000b0: 01e5 0fbe e062 cd3e 6821 de3d 6d42 10bd
000000c0: 5f59 fdbd 948b 95bd f3e2 0b3e 3281 783e
000000d0: 0785 843d b065 e7bc a368 2a3b 85df 58bb
000000e0: 772d 1bbe d121 90be d83d a5bd e3e0 1ebc
000000f0: 1b3f 5f3d 5c9b 36bc d42f 7bbe c580 d2be
00000100: 5e44 0d3e 2691 d43e 09e4 26be 7053 153e
00000110: a548 2abe 7bc5 79be 8341 bebd 0f95 b0bd
00000120: 0096 31bc 5935 28bd 15fa 26be 6d21 f43d
00000130: abf9 353e 4bab 4bbd 917f edbc 38ea 223d
00000140: 01bd bbbd a9cd c2bd a993 d93d 5a3c 6c3d
00000150: fb05 ea3e 35f6 443d 38a7 813b 089f e9be
00000160: 14c7 a33c 9c0d 0d3c c19c f43c d694 babd
00000170: db5c acbd 3130 9c3d 837c fbbc fc71 3cbc
00000180: b6a6 c03e 5e12 2a3e c22e e03c ae93 bd3d
00000190: 3721 11bf a2c0 b3be 0f17 dfbc 91ac a33d
000001a0: 2b7f a33d fcca 4a3d 0c84 32be 6514 4c3d
000001b0: 5eff 66bb 01d7 143e 8954 7bbb eeeb 6e3a
000001c0: 22de 5cbe 4321 96bd fac0 37ba 1d0c 6cbe
000001d0: 395f 30be ead4 b63c 3314 f7bd 7aa1 e5bc
000001e0: 24b5 c83d 8e8a 333d f2e6 003d df15 6cbd
000001f0: d7bd 98bb 9057 0c3d 5450 fb3c f67d 2dbe
00000200: 2b21 9b3c 1a47 a53d ce28 02bf 5459 013e
00000210: 18ea 23bd 3813 c7be 6823 ccbe 77cb cebe
00000220: 0e71 963e a570 fdbe 5f91 7cbe 5ac7 79bd
00000230: 3d66 b23e 28f4 6b3c 63ef 06bf 89d5 9fbe
00000240: c312 18bf f11c f73d c53d c4bd b9e9 3e3e
00000250: 2efa 5bbf 949f 99be d3a9 13bf 4d02 bbbe
00000260: c0df d3bd ca7f 3c3d 7187 953e a384 e83e
00000270: fe35 c53e df13 96bd 932e 56bf b7a7 67bf
00000280: 32ae 1a3d 3e5e 143c bb4a 613e 6675 84be
00000290: 2b02 1a3e 3301 ddbe b215 0abf 1a83 f4be
000002a0: e638 8e3d 2e4a b33d 6424 60be 2ab1 6fbe
000002b0: 8777 07bf fb6d 08be 39d8 483d 8f2c d73e
000002c0: 8d82 f23d c28c 03bf 13eb 1d3d 0dbe 893e
000002d0: 2604 e23d a6c8 09bf eab5 5f3e 105c 3b3d
000002e0: 0e8c 5bbf 8a27 20be 1568 383e 6054 6bbd
000002f0: 411b cabb c7c7 e63e 65bb 14bf 17d4 a9be
00000300: 5f10 b2be 3fa3 c03e 5bac bfbe 0801 c63e
00000310: 5150 afbe 6975 b1be ea10 03bf 57c8 683e
00000320: c7ea 6e3e 46f7 44be f161 933d 9c50 583e
00000330: 04b3 be3e 9ad4 26be 4a34 c4bd 5446 37be
00000340: 36c5 0cbf 0369 20bf a755 dd3e 9fb6 aebc
00000350: b38d 773e 1e9f 1b3e 28e9 d8bd 719f 0fbf
00000360: d8b8 24be 5b46 1ebf b258 193e 264e b63e
00000370: dba7 4cbf ff49 013f cbeb 4b3d 3720 223c
00000380: f43c 94be f791 9cbe 0336 a3bd e5a1 e23d
00000390: 8248 f7bd f4f9 69be 3409 4fbd f134 b33e
000003a0: 35ad 033f 3f3f a53e b381 3fbd b23a 3fbe
000003b0: 8543 a9be 548b 803c be60 893d 09be 82be
000003c0: da76 66bd 01d7 f1be f9fa 613e 866e fabe
000003d0: f170 06bf 0ff6 0dbe 7d5c debe 2ec7 8c3e
000003e0: d38e 6e3d 2d31 4abe 7d07 be3e 626a 713e
000003f0: 18c5 a2bc 16f7 c9be 3d51 163f d50e 293e

linear_layer_2.bias f4 [128]
-0.15620208 -0.4996221 -0.27210107 -0.22881517 -0.20439282 -0.21513242 -0.3663122 -0.904304
-0.29432827 -0.3978691 -0.6197573 -0.23837745 -0.7264497 -0.88965976 -0.27287397 -0.48941213
-0.24701233 -0.12919612 -0.3089603 -0.34108385 -0.24281338 -0.9161327 -0.8742038 -0.93456644
-0.23697051 -0.48379028 -0.4111023 -0.80103934 -0.40601912 -0.06592445 -0.38862464 -0.30493084
-0.8545605 -0.35472298 -1.0913267 -0.27255747 -0.43293205 -0.33172426 -0.9552258 -0.4737842
-0.39524108 -0.046342622 -0.89208674 -0.46956232 -1.1676685 -0.90398943 -0.08435368 -0.51967585
-0.6307811 -0.3987018 -0.06038301 -0.93183124 -0.3688803 -0.79075336 -0.06319522 -0.14337589
-0.33383012 -0.3642932 -0.20506829 -0.14681818 0.0040920554 -0.94918555 -0.38681898 -0.12648354
-0.55363077 -0.23047492 -0.9568242 -0.13953008 -0.45144168 -0.69806784 -0.44451514 -0.2011176
-0.7832567 -0.31114876 -0.8870521 -0.51180375 -0.177835 -0.35537958 -0.68173176 -0.21536118
-0.3239262 -1.2756639 -0.3142232 -0.5420427 -0.763028 -0.88357127 -0.8332086 -1.006436
-0.82027066 -1.0522557 -1.1429344 -0.27307722 -0.4469179 -0.79883033 -0.83245414 -0.13132332
-0.21234284 -0.9981264 -0.0011366536 -0.8621679 -0.0015711575 -0.14829224 -0.102003746 -0.8188411
-0.9762769 -0.08254135 -0.38629857 -0.35674018 -0.29054427 -0.8810277 -0.86121917 -0.76826006
-0.42311347 -0.25740695 -0.8388675 -0.7793496 -0.41556785 -0.5957258 -0.17707242 -0.9331273
-1.0505667 0.24214727 -0.84983987 -0.14732301 -0.22577314 -0.93211126 -0.3501094 -0.3354791
00000000: 70f3 1fbe 78ce ffbe d550 8bbe 864e 6abe
00000010: 5a4c 51be ac4b 5cbe 468d bbbe 7880 67bf
00000020: 32b2 96be 80b5 cbbe 6aa8 1ebf 3819 74be
00000030: 9cf8 39bf bec0 63bf 23b6 8bbe 3a94 fabe
00000040: cdf0 7cbe fd4b 04be 0b30 9ebe 8ba2 aebe
00000050: 12a4 78be ac87 6abf d2cb 5fbf bf3f 6fbf
00000060: 66a8 72be 5cb3 f7be 007c d2be ea10 4dbf
00000070: bde1 cfbe 6603 87bd cff9 c6be e51f 9cbe
00000080: 7ac4 5abf 409e b5be 98b0 8bbf a78c 8bbe
00000090: 45a9 ddbe c3d7 a9be ae89 74bf d893 f2be
000000a0: 0a5d cabe c3d1 3dbd cc5f 64bf 796a f0be
000000b0: 2976 95bf da6b 67bf 9fc1 acbd 7a09 05bf
000000c0: df7a 21bf a422 ccbe 2d54 77bd 7e8c 6ebf
000000d0: e1dd bcbe d06e 4abf 7f6c 81bd 21d1 12be
000000e0: c8eb aabe a384 babe 6cfd 51be 8157 16be
000000f0: a616 863b d3fd 72bf 230d c6be e784 01be
00000100: bfba 0dbf 9e01 6cbe 6ef2 74bf f9e0 0ebe
00000110: 5d23 e7be 93b4 32bf 7d97 e3be c6f1 4dbe
00000120: 8383 48bf e44e 9fbe d915 63bf 9205 03bf
00000130: 611a 36be 50f4 b5be f985 2ebf a487 5cbe
00000140: a8d9 a5be f448 a3bf dde1 a0be 4fc3 0abf
00000150: ce55 43bf ba31 62bf 294d 55bf e5d2 80bf
00000160: 42fd 51bf 51b0 86bf ad4b 92bf c7d0 8bbe
00000170: 6cd2 e4be 2580 4cbf b71b 55bf 9f79 06be
00000180: 6770 59be 3685 7fbf c4fb 94ba 09b7 5cbf
00000190: 4cef cdba ecd9 17be 57e7 d0bd 929f 51bf
000001a0: 48ed 79bf 700b a9bd edc8 c5be a6a6 b6be
000001b0: 38c2 94be 088b 61bf dc78 5cbf b1ac 44bf
000001c0: 54a2 d8be d8ca 83be 05c0 56bf 7583 47bf
000001d0: 4fc5 d4be 7c81 18bf 7952 35be 6ee1 6ebf
000001e0: f878 86bf 74f5 773e 1b8f 59bf d8db 16be
000001f0: 1331 67be d89e 6ebf 8a41 b3be ebc3 abbe

linear_layer_3.weight f4 [128, 128]
-0.17809586 0.10697005 0.2696263 -2.5911846 -0.22607611 0.25349998 -0.3850972 -0.53558594
0.47140217 0.66854537 0.23001362 0.5872431 0.003385602 -0.06964269 -0.12500323 0.15158713
0.6064273 0.33242536 0.28101185 0.040233612 -0.40313086 0.41041055 -0.0047997558 -0.18202372
0.56064737 0.1251658 0.04644602 -0.12768951 -0.2346198 -0.414334 -0.17554931 0.063277654
-0.64532715 -0.45246166 0.29495326 -1.7034484 0.06846233 -0.11862534 0.25285548 -0.64659894
-0.4833254 -0.07564206 0.32056007 0.49716344 0.37849325 0.32017657 0.015694272 0.5995219
0.3376901 0.6613555 -0.27498516 0.07146203 -0.18490529 0.5053688 -0.5659985 -0.7446455
0.020528417 -0.31550485 0.41066232 -0.33464256 -0.45085928 -0.14290018 -0.19406112 -0.5436886
0.23602727 -0.10837576 -0.25493538 0.0015730421 0.053475723 0.3013062 -0.48273605 -0.16561753
0.24414179 0.30771723 -0.28713012 0.20786972 -0.5053311 -0.03024898 0.043561436 -0.5263068
0.14818038 0.29701772 -0.51151866 0.13811362 0.32907572 0.20844612 0.39230144 0.38394037
0.07419995 0.42963797 0.20913966 0.65483147 0.74076056 -0.06168622 0.41460794 -0.5156948
0.1186022 0.29794645 -0.45204353 0.2806953 0.069850475 0.29213613 -0.00014150517 0.16452433
0.2848465 0.44206375 -0.08964078 -1.9038427 -0.39001435 -1.2072526 0.10410892 0.73865974
0.09160244 0.29672277 0.2609834 0.32376203 0.07656571 0.034336425 -0.44037303 -0.33316728
0.2091806 -0.0023069514 0.27956527 0.5734384 0.60212696 0.0027119194 -0.61529464 0.22063889
-0.42568874 -0.032509226 -0.122353025 -0.6768386 -0.019740863 -0.0038712763 -0.56049 -0.1078412
0.22384684 0.20667858 0.1311943 -0.012092812 0.0074245506 0.011527888 -1.5952863 -0.6725869
0.19044764 0.03575127 -0.2150111 -0.5608905 -0.0109419525 0.040474907 0.09064621 -0.102155544
0.14369775 -0.05334469 -1.0718386 0.03336405 0.048384212 -0.15464987 -0.027164822 -0.14917861
-0.124750055 -0.07622725 0.023881571 -0.71905583 -0.7213004 -1.928291 0.07299378 -0.11699819
0.019459708 0.0921451 0.07223924 0.1632159 0.1125585 -0.039747592 0.33481064 0.24265388
0.118727125 0.1749167 0.20514 -0.12845464 -0.08406113 0.20870116 -0.23057571 -0.40283155
-0.084610514 -0.0851222 0.18932082 -0.17886165 0.33719334 -0.043090366 -0.042954657 -0.16643244
-0.0890516 0.02552157 -0.117450975 -0.01361722 0.017451374 0.02901095 0.012150634 0.26279765
0.20447104 -0.17159797 -0.07534095 0.053373832 0.10492778 0.022396522 0.055012494 0.120650366
0.005104338 0.033421256 -0.11217014 0.021868061 0.1299637 0.110758975 0.019397745 0.09356836
0.030702027 0.021925326 0.07062418 0.20485961 0.08857075 -0.05359117 0.063274965 -0.2981473
0.053139016 0.0499942 -0.21086875 0.114730746 -0.06457071 0.02509452 -0.0004482019 0.07173893
-0.046984196 0.0023184058 0.0012037222 -0.79065156 -0.07044382 -0.14190643 0.0005910589 0.06293098
0.03355577 0.24936685 0.102616794 0.005649773 -0.19238472 -0.018086037 -0.35251468 -0.07035247
0.045546003 0.22995588 0.07207525 0.3912642 0.23562708 0.059720572 -0.14759842 -0.19075122
00000000: c35e 36be 1d13 db3d 750c 8a3e f8d5 25c0
00000010: 7f80 67be c0ca 813e 762b c5be 291c 09bf
00000020: a05b f13e ca25 2b3f b188 6b3e 9055 163f
00000030: fae0 5d3b d4a0 8ebd d900 00be a839 1b3e
00000040: d23e 1b3f a833 aa3e c9e0 8f3e 00cc 243d
00000050: 2b67 cebe 5521 d23e 4547 9dbb 6d64 3abe
00000060: 9686 0f3f 772b 003e 2f3e 3e3d 0ac1 02be
00000070: 2c40 70be 9623 d4be 33c3 33be b797 813d
00000080: 2934 25bf 0ea9 e7be 1d04 973e 990a dabf
00000090: fa35 8c3d d8f1 f2bd 4676 813e 8287 25bf
000000a0: 6d76 f7be 39ea 9abd 7320 a43e 358c fe3e
000000b0: dec9 c13e 2fee a33e 4691 803c 447a 193f
000000c0: b7e5 ac3e 984e 293f dbca 8cbe af5a 923d
000000d0: d057 3dbe da5f 013f 47e5 10bf 16a1 3ebf
000000e0: 362b a83c da89 a1be 5542 d23e 4556 abbe
000000f0: 07d7 e6be 6d54 12be f5b7 46be 2d2f 0bbf
00000100: 22b1 713e 1cf4 ddbd e486 82be 892e ce3a
00000110: 5c09 5b3d ce44 9a3e 2e29 f7be a497 29be
00000120: 4e00 7a3e 1d8d 9d3e b802 93be cddb 543e
00000130: 615d 01bf b5cc f7bc 7a6d 323d 0bbc 06bf
00000140: 99bc 173e b512 983e e3f2 02bf a86d 0d3e
00000150: 9d7c a83e e672 553e bcdb c83e d593 c43e
00000160: 25f6 973d 82f9 db3e b528 563e 09a3 273f
00000170: 7ca2 3d3f b1aa 7cbd 7e47 d43e 9304 04bf
00000180: b6e5 f23d 708c 983e 4072 e7be 4bb7 8f3e
00000190: c40d 8f3d de92 953e 0161 14b9 1179 283e
000001a0: 67d7 913e 2e56 e23e 9695 b7bd 1eb1 f3bf
000001b0: f6af c7be 4187 9abf 0f37 d53d ce18 3d3f
000001c0: 0f9a bb3d 0cec 973e 9e9f 853e 23c4 a53e
000001d0: 7cce 9c3d 5aa4 0c3d 9378 e1be e794 aabe
000001e0: 7033 563e 3930 17bb 2e23 8f3e dccc 123f
000001f0: fe24 1a3f 75ba 313b f383 1dbf 29ef 613e
00000200: e0f3 d9be 6528 05bd 3994 fabd 4b45 2dbf
00000210: 97b7 a1bc 3db5 7dbb 467c 0fbf d9db dcbd
00000220: 1b38 653e 8da3 533e cc57 063e ee20 46bc
00000230: a549 f33b 77df 3c3c 5732 ccbf a82e 2cbf
00000240: b504 433e ec6f 123d df2b 5cbe 8596 0fbf
00000250: e045 33bc 04c9 253d b8a4 b93d ed36 d1bd
00000260: 8125 133e f67f 5abd 0232 89bf bea8 083d
00000270: 862e 463d 895c 1ebe c388 debc 47c2 18be
00000280: f57c ffbd 081d 9cbd 49a3 c33c 0b14 38bf
00000290: 25a7 38bf 3dd2 f6bf c37d 953d bf9c efbd
000002a0: f769 9f3c 92b6 bc3d 2bf2 933d 1222 273e
000002b0: 1285 e63d 5fce 22bd 4d6c ab3e 427a 783e
000002c0: 3527 f33d 5d1d 333e 3810 523e 9d89 03be
000002d0: 3e28 acbd c2b5 553e 0a1c 6cbe f03f cebe
000002e0: 4748 adbd 8c54 aebd 51dd 413e 8227 37be
000002f0: 9ba4 ac3e 867f 30bd 39f1 2fbd 446d 2abe
00000300: af60 b6bd 9d12 d13c 238a f0bd c31a 5fbc
00000310: 2ff6 8e3c 5fa8 ed3c 7413 473c 6a8d 863e
00000320: db60 513e 61b7 2fbe 5b4c 9abd 859e 5a3d
00000330: 60e4 d63d e978 b73c c854 613d 8a17 f73d
00000340: 4a42 a73b bae4 083d 75b9 e5bd a624 b33c
00000350: 3415 053e 9ad5 e23d 05e8 9e3c c5a0 bf3d
00000360: d182 fb3c be9c b33c 69a3 903d b8c6 513e
00000370: 9564 b53d 6a82 5bbd 4e96 813d c3a6 98be
00000380: 4ca8 593d b8c6 4c3d faed 57be f4f7 ea3d
00000390: a63d 84bd 0693 cd3c a4fc eab9 dceb 923d
000003a0: 8072 40bd 65f0 173b 37c6 9d3a 2468 4abf
000003b0: d944 90bd eb4f 11be 4bf1 1a3a f5e1 803d
000003c0: c671 093d 065a 7f3e c128 d23d bb21 b93b
000003d0: 8000 45be 2b29 94bc ce7c b4be f514 90bd
000003e0: 728e 3a3d 8e79 6b3e 309c 933d c853 c83e
000003f0: 3a48 713e 8f9d 743d 0a24 17be 4a54 43be

linear_layer_3.bias f4 [128]
-0.6835725 -0.1920538 -0.6320559 -0.30039877 -0.6232179 -0.31255856 -0.49279362 -0.13605724
-0.7817011 -0.71628624 -0.23437524 -0.60342735 -0.52445656 -0.8649387 -0.3733495 -0.3747083
-0.1985458 -0.05986398 -0.7657856 -1.1669289 -0.20472288 -0.775441 -0.8686371 -0.78436273
-0.023558592 -1.1257896 -0.80731523 -0.18729417 -0.783428 -0.92222077 -0.76041883 -0.67350245
-0.036969077 0.14589307 -0.79363936 -0.17559816 -0.73385894 -0.67684376 -0.5293398 -0.8163606
-0.30259874 -0.8556464 -0.823173 -0.5686459 -0.17570557 -0.8524127 -0.80397683 -0.16806538
-0.737251 -0.13445422 -0.85877573 -0.6582587 -0.844426 -0.8149795 -0.67144686 -0.34054267
-0.9041478 0.11589502 -0.79886794 -0.9994041 -0.6725179 -0.4606458 -0.83488 -0.45741427
-0.47908726 -0.34701645 -0.93106735 -0.85807323 -0.35423225 -0.65413177 -0.99897224 -0.7822738
-0.644156 -0.7267032 -0.6847893 -0.3311638 -0.83298606 -0.9298387 -0.41696802 -0.7005106
-0.18027988 -0.3163999 -0.76864845 -0.8368603 -0.6766664 -0.804929 -0.78030384 -0.43761134
-0.9849337 -0.7039483 -0.3319842 0.04763553 -0.65396416 -0.49155426 -0.8294717 -0.5209713
-0.87408626 -0.8621788 -0.8069209 -0.817359 -0.87267923 -0.7108551 -0.32217953 -0.42214936
-0.30801618 -0.8204195 -0.69858366 -0.8351083 -0.8312238 -0.903562 -0.924597 -0.7008544
-0.35937667 -0.80992293 -0.07600598 -0.4900064 -0.9313213 -0.84814143 -1.0052577 -0.45394847
-0.7617677 -0.7059477 -0.94423604 -0.2439409 -0.8947321 -0.9136601 -0.75129503 -0.8339278
00000000: 9bfe 2ebf c0a9 44be 6ace 21bf decd 99be
00000010: 358b 1fbf ad07 a0be 724f fcbe 9752 0bbe
00000020: 901d 48bf 895e 37bf 1000 70be 377a 1abf
00000030: c942 06bf 9f6c 5dbf aa27 bfbe c4d9 bfbe
00000040: 974f 4bbe ef33 75bd 860a 44bf ed5d 95bf
00000050: e0a2 51be 4d83 46bf 005f 5ebf ffcb 48bf
00000060: f3fd c0bc e019 90bf 36ac 4ebf 0bca 3fbe
00000070: bd8e 48bf a916 6cbf cfaa 42bf a86a 2cbf
00000080: e36c 17bd fe64 153e f32b 4bbf 01d0 33be
00000090: 2ede 3bbf a245 2dbf d082 07bf 02fd 50bf
000000a0: 39ee 9abe a40b 5bbf 77bb 52bf c792 11bf
000000b0: 29ec 33be b837 5abf 6dd1 4dbf 5519 2cbe
000000c0: 7bbc 3cbf 5eae 09be bad8 5bbf a483 28bf
000000d0: 4d2c 58bf 7fa2 50bf f1e3 2bbf 9c5b aebe
000000e0: 3b76 67bf 5e5a ed3d 9c82 4cbf f2d8 7fbf
000000f0: 222a 2cbf c4d9 ebbe b2ba 55bf 3432 eabe
00000100: ed4a f5be 24ac b1be 6e5a 6ebf b0aa 5bbf
00000110: ee5d b5be 2e75 27bf a5bc 7fbf 1943 48bf
00000120: 68e7 24bf 3909 3abf 5a4e 2fbf 4d8e a9be
00000130: 933e 55bf e909 6ebf d57c d5be aa54 33bf
00000140: 4a9b 38be 2bff a1be 25c6 44bf 7a3c 56bf
00000150: 023a 2dbf d40f 4ebf fec1 47bf 980e e0be
00000160: 9d24 7cbf f535 34bf d5f9 a9be 791d 433d
00000170: 326a 27bf 00ad fbbe 4258 54bf 605e 05bf
00000180: 1ec4 5fbf c0b7 5cbf 5e92 4ebf 703e 51bf
00000190: e867 5fbf 9afa 35bf b7f4 a4be f623 d8be
000001a0: 4cb4 9dbe 0307 52bf 61d6 32bf a8c9 55bf
000001b0: 15cb 54bf d74f 67bf 64b2 6cbf 326b 33bf
000001c0: 3800 b8be 1c57 4fbf 06a9 9bbd 1ee2 fabe
000001d0: 136b 6ebf cc1f 59bf 49ac 80bf ef6b e8be
000001e0: 3503 43bf fdb8 34bf 74b9 71bf a5cb 79be
000001f0: 2a0d 65bf a1e5 69bf df54 40bf 4b7c 55bf

linear_layer_4.weight f4 [2, 128]
-0.17289436 -0.081407525 -0.2062057 -0.02980921 0.3452864 -0.009131747 0.024051107 0.013913007
-0.012488061 0.05189849 -0.14967284 0.06549611 0.006723026 0.0039229863 0.0121046975 0.04507754
0.015171032 0.2449048 0.011077021 0.15900102 -0.21415098 0.027626475 -0.04570635 0.00053240237
0.18339714 0.049756076 0.008754694 -0.2085157 0.015383452 -0.0010132393 0.024516203 0.011796691
-0.28435925 0.10101532 0.016918387 -0.2505404 -0.042734385 0.03214448 0.04799198 -0.0059414627
-0.02990833 0.016498508 0.013900345 -0.012777864 -0.22027275 -2.9178918e-05 0.0015956637 0.042645894
-0.041862223 0.031198049 -0.0073024686 -0.024243964 0.010771389 0.015790718 -0.04109294 -0.00090725045
0.021055983 -0.1845384 0.023969848 0.025766829 0.02613011 0.33541477 0.0065726824 0.0067794104
0.009041986 -0.0058126007 -0.0066706203 0.010752867 -0.11131451 0.01411141 0.0020146118 -0.009775088
-0.13987379 0.021546178 0.023577295 -0.015209017 0.0038471895 0.016603498 -0.009888227 -0.009264398
-0.16252828 -0.030753233 0.020333838 -0.004015684 0.09983618 0.043293677 -0.0038588678 -0.034631547
0.02464501 0.03254616 -0.005757927 0.17075363 0.0024217337 0.0060076537 0.0007314556 0.24277028
0.042195268 0.006938401 0.022594076 0.007783438 0.014696455 0.012051086 -0.023496203 -0.19421054
-0.012326565 0.021315819 0.016477928 -0.010877286 0.013110708 0.011047156 0.023914896 0.01655414
-0.15731777 0.012605662 -0.18428662 0.021348994 0.12568583 0.0019659852 -0.062173128 0.0023924718
0.01897069 0.033675224 -0.016506677 0.019092793 -0.002372722 0.108462535 0.017260382 -0.009567155
0.17329066 0.08136881 0.20633651 0.029749446 -0.34519982 0.008987977 -0.023992352 -0.013786161
0.013178813 -0.054795608 0.14968282 -0.065500684 -0.0069907275 -0.008663921 -0.012119439 -0.045113888
-0.015111985 -0.24490638 -0.008380885 -0.15893966 0.21415406 -0.024715314 0.046215445 1.3407989e-06
-0.1833777 -0.048183974 -0.012487857 0.208513 -0.012178037 -0.0017367803 -0.025647478 -0.011735915
0.28451607 -0.101012975 -0.024804892 0.25053424 0.042739995 -0.033451743 -0.049162295 0.004529061
0.03280756 -0.023787154 -0.01183985 0.013226345 0.22027983 -0.0073427996 0.0023181117 -0.042691752
0.041846734 -0.031122811 0.007794458 0.024164822 -0.013354078 -0.014291426 0.04110753 -0.006012451
-0.027216118 0.18428291 -0.021884214 -0.008281283 -0.02607082 -0.3354268 -0.008653647 -0.0012609424
-0.009206519 0.0042388826 0.007546547 -0.011531864 0.1115537 -0.017455986 -0.006155651 0.0011739769
0.1398802 -0.0059647528 -0.02564267 0.024682209 -0.0050760955 -0.0144485375 0.009889212 0.0093889665
0.16249038 0.024690816 -0.019848429 0.0034572806 -0.09982165 -0.04139676 0.0007569616 0.034816
-0.017587174 -0.031606875 0.00542566 -0.1707456 -0.0028005862 -0.0028561992 -0.0009547279 -0.2431345
-0.042591676 -0.0035929678 -0.022632815 -0.016244542 -0.015574626 -0.012319429 0.016823621 0.19419391
0.014534212 -0.021804571 -0.01259247 0.00658847 -0.016651735 0.00266105 -0.008946193 -0.015765723
0.1573224 -0.011009746 0.1841582 -0.022543611 -0.12567934 -0.008180817 0.06250922 -0.0037315125
-0.015951613 -0.03312075 0.018019427 -0.018981962 0.009056569 -0.10890936 -0.019514099 0.004626844
00000000: 380b 31be fdb8 a6bd 9627 53be 7232 f4bc
00000010: 61c9 b03e 539d 15bc d406 c53c 62f3 633c
00000020: b99a 4cbc 8393 543d d643 19be d322 863d
00000030: d44c dc3b 658c 803b c852 463c 3aa3 383d
00000040: ec8f 783c 53c8 7a3e 657c 353c 2ad1 223e
00000050: 654a 5bbe eb50 e23c 9536 3bbd eb90 0b3a
00000060: 76cc 3b3e 07cd 4b3d d96f 0f3c 2485 55be
00000070: e00a 7c3c abce 84ba 34d6 c83c e946 413c
00000080: 8997 91be 1fe1 ce3d 6e98 8a3c d546 80be
00000090: 400a 2fbd eea9 033d 3d93 443d 9ab0 c2bb
000000a0: 5002 f5bc e127 873c 46be 633c 3f5a 51bc
000000b0: 2e8f 61be 40c5 f4b7 9725 d13a 76ad 2e3d
000000c0: b977 2bbd 0d93 ff3c 8c49 efbb 479b c6bc
000000d0: 7b7a 303c 895b 813c 1251 28bd 8cd4 6dba
000000e0: 997d ac3c a2f7 3cbe 6a5c c43c f514 d33c
000000f0: d00e d63c 7cbb ab3e a85f d73b d125 de3b
00000100: d724 143c a177 bebb 3895 dabb cb2c 303c
00000110: ddf8 e3bd 8b33 673c 9407 043b b127 20bc
00000120: 133b 0fbe 9c81 b03c 2c25 c13c 3e2f 79bc
00000130: 2121 7c3b 0f04 883c 3b02 22bc b4c9 17bc
00000140: d06d 26be 34ee fbbc 2693 a63c 0096 83bb
00000150: e976 cc3d b654 313d 0fe5 7cbb cfd9 0dbd
00000160: 55e4 c93c 1f4f 053d feac bcbb 0ada 2e3e
00000170: f3b5 1e3b dadb c43b 28bf 3f3a c698 783e
00000180: f2d4 2c3d 875b e33b 3617 b93c 360c ff3b
00000190: 66c9 703c eb71 453c 1c7b c0bc 21df 46be
000001a0: 5cf5 49bc 839e ae3c b8fc 863c a536 32bc
000001b0: 4cce 563c 21ff 343c 2ce9 c33c 8c9c 873c
000001c0: e917 21be fb87 4e3c a2b5 3cbe 16e4 ae3c
000001d0: c9b3 003e c2d7 003b 40a9 7ebd 04cb 1c3b
000001e0: 6c68 9b3c 08ef 093d 0339 87bc 7d68 9c3c
000001f0: ab7f 1bbb 9b21 de3d a565 8d3c 8ebf 1cbc
00000200: 1b73 313e b1a4 a63d e149 533e 1cb5 f33c
00000210: 08be b0be 4f42 133c 9c8b c4bc 5adf 61bc
00000220: f3eb 573c 5c71 60bd 7446 193e 3925 86bd
00000230: 7912 e5bb 1ef3 0dbc 9d90 46bc 57c9 38bd
00000240: 4298 77bc bdc8 7abe fb4f 09bc 14c1 22be
00000250: 344b 5b3e c577 cabc 684c 3d3d 80f5 b335
00000260: 5dc7 3bbe 8f5c 45bd de99 4cbc 6f84 553e
00000270: 6486 47bc ada4 e3ba a91a d2bc ff47 40bc
00000280: 17ac 913e e4df cebd a133 cbbc 0646 803e
00000290: 2210 2f3d b204 09bd 675e 49bd 8468 943b
000002a0: 3861 063d 47dd c2bc eefb 41bc 50b3 583c
000002b0: 0991 613e de9b f0bb 76eb 173b 8cdd 2ebd
000002c0: 7b67 2b3d 44f5 febc a768 ff3b 4ef5 c53c
000002d0: 10cb 5abc 9626 6abc 5f60 283d 1804 c5bb
000002e0: 56f4 debc a9b4 3c3e 8646 b3bc 38ae 07bc
000002f0: 7992 d5bc 10bd abbe 07c8 0dbc 3546 a5ba
00000300: f1d6 16bc 53e6 8a3b 0649 f73b 25f0 3cbc
00000310: 4476 e43d dbff 8ebc 58b5 c9bb 21e0 993a
00000320: c13c 0f3e f973 c3bb 9410 d2bc 5832 ca3c
00000330: 6055 a6bb 8fb9 6cbc 5d06 223c 2ed4 193c
00000340: e163 263e 6544 ca3c 2c99 a2bc 8b93 623b
00000350: 4b6f ccbd a68f 29bd d56e 463a 399b 0e3d
00000360: fa12 90bc 3676 01bd bcc9 b13b efd7 2ebe
00000370: 0a8a 37bb 122f 3bbb b446 7aba 40f8 78be
00000380: 9c74 2ebd ff77 6bbb 7468 b9bc 4613 85bc
00000390: b72c 7fbc 6ed7 49bc b1d1 893c c5da 463e
000003a0: e720 6e3c 809f b2bc a650 4ebc 18e4 d73b
000003b0: 3869 88bc 0365 2e3b 0e93 12bc 1e27 81bc
000003c0: 2019 213e 3962 34bc f893 3c3e 61ad b8bc
000003d0: 16b2 00be d508 06bc d504 803d 648c 74bb
000003e0: f5ac 82bc a0a9 07bd 7a9d 933c 0f80 9bbc
000003f0: 0162 143c df0b dfbd 08dc 9fbc c89c 973b

linear_layer_4.bias f4 [2]
0.0766021 -0.07659678
00000000: 90e1 9c3d c6de 9cbd
